…
-----------------------+----------------+----------+
| Layer                                    | Input Shape                             | Output Shape   | #Param   |
|------------------------------------------+-----------------------------------------+----------------+----------|
| GraphModule                              |                                         |                | 147,228  |
| ├─(node_emb)ModuleDict                   | --                                      | --             | 198      |
| │    └─(node)Linear                      | [150952, 2]                             | [150952, 66]   | 198      |
| ├─(edge_emb)ModuleDict                   | --                                      | --             | 924      |
| │    └─(node__to__node)Linear            | [700021, 6]                             | [700021, 66]   | 462      |
| │    └─(node__rev_to__node)Linear        | [890669, 6]                             | [890669, 66]   | 462      |
| ├─(convs)ModuleList                      | --                                      | --             | 53,064   |
| │    └─(0)ModuleDict                     | --                                      | --             | 26,532   |
| │    │    └─(node__to__node)GINEConv     | [150952, 66], [2, 700021], [700021, 66] | [150952, 66]   | 13,266   |
| │    │    └─(node__rev_to__node)GINEConv | [150952, 66], [2, 890669], [890669, 66] | [150952, 66]   | 13,266   |
| │    └─(1)ModuleDict                     | --                                      | --             | 26,532   |
| │    │    └─(node__to__node)GINEConv     | [150952, 66], [2, 700021], [700021, 66] | [150952, 66]   | 13,266   |
| │    │    └─(node__rev_to__node)GINEConv | [150952, 66], [2, 890669], [890669, 66] | [150952, 66]   | 13,266   |
| ├─(batch_norms)ModuleList                | --                                      | --             | 264      |
| │    └─(0)ModuleDict                     | --                                      | --             | 132      |
| │    │    └─(node)BatchNorm              | [150952, 66]                            | [150952, 66]   | 132      |
| │    └─(1)ModuleDict                     | --                                      | --             | 132      |
| │    │    └─(node)BatchNorm              | [150952, 66]                            | [150952, 66]   | 132      |
| ├─(emlps)ModuleList                      | --                                      | --             | 70,224   |
| │    └─(0)ModuleList                     | --                                      | --             | 35,112   |
| │    │    └─(0)ModuleDict                | --                                      | --             | 26,268   |
| │    │    └─(1)ModuleDict                | --                                      | --             | --       |
…
| │    │    └─(0)ModuleDict                | --                                      | --             | 26,268   |
| │    │    └─(1)ModuleDict                | --                                      | --             | --       |
| │    │    └─(2)ModuleDict                | --                                      | --             | 8,844    |
| ├─(mlp)ModuleList                        | --                                      | --             | 22,554   |
| │    └─(0)ModuleDict                     | --                                      | --             | 19,900   |
| │    │    └─(node__to__node)Linear       | [700021, 198]                           | [700021, 50]   | 9,950    |
| │    │    └─(node__rev_to__node)Linear   | [890669, 198]                           | [890669, 50]   | 9,950    |
| │    └─(1)ModuleDict                     | --                                      | --             | --       |
| │    │    └─(node__to__node)ReLU         | [700021, 50]                            | [700021, 50]   | --       |
| │    │    └─(node__rev_to__node)ReLU     | [890669, 50]                            | [890669, 50]   | --       |
| │    └─(2)ModuleDict                     | --                                      | --             | --       |
| │    │    └─(node__to__node)Dropout      | [700021, 50]                            | [700021, 50]   | --       |
| │    │    └─(node__rev_to__node)Dropout  | [890669, 50]                            | [890669, 50]   | --       |
| │    └─(3)ModuleDict                     | --                                      | --             | 2,550    |
| │    │    └─(node__to__node)Linear       | [700021, 50]                            | [700021, 25]   | 1,275    |
| │    │    └─(node__rev_to__node)Linear   | [890669, 50]                            | [890669, 25]   | 1,275    |
| │    └─(4)ModuleDict                     | --                                      | --             | --       |
| │    │    └─(node__to__node)ReLU         | [700021, 25]                            | [700021, 25]   | --       |
| │    │    └─(node__rev_to__node)ReLU     | [890669, 25]                            | [890669, 25]   | --       |
| │    └─(5)ModuleDict                     | --                                      | --             | --       |
| │    │    └─(node__to__node)Dropout      | [700021, 25]                            | [700021, 25]   | --       |
| │    │    └─(node__rev_to__node)Dropout  | [890669, 25]                            | [890669, 25]   | --       |
| │    └─(6)ModuleDict                     | --                                      | --             | 104      |
| │    │    └─(node__to__node)Linear       | [700021, 25]                            | [700021, 2]    | 52       |
| │    │    └─(node__rev_to__node)Linear   | [890669, 25]                            | [890669, 2]    | 52       |
+------------------------------------------+-----------------------------------------+----------------+----------+
2025-03-05 23:12:52,580 [INFO ] Train F1: 0.0014
2025-03-05 23:51:46,126 [INFO ] Validation F1: 0.0228
2025-03-05 23:51:46,127 [INFO ] Test F1: 0.0467
2025-03-06 00:45:03,689 [INFO ] Train F1: 0.1793
2025-03-06 01:21:19,601 [INFO ] Validation F1: 0.3044
2025-03-06 01:21:19,602 [INFO ] Test F1: 0.4768
…
