…
2025-03-05 16:16:13,052 [INFO ] test data object: GraphData(x=[515088, 1], edge_index=[2, 5078345], edge_attr=[5078345, 4], y=[5078345], readout='edge', loss_fn='ce', num_nodes=515088, timestamps=[5078345])
2025-03-05 16:16:13,059 [INFO ] Retrieved data in 42.96s
2025-03-05 16:16:13,059 [INFO ] Running Training
2025-03-05 16:16:24,283 [INFO ] +---------------------------------+----------------------------------------+----------------+----------+
| Layer                           | Input Shape                            | Output Shape   | #Param   |
|---------------------------------+----------------------------------------+----------------+----------|
| GINe                            | [50614, 1], [2, 341148], [341148, 4]   | [341148, 2]    | 38,535   |
| ©À©¤(node_emb)Linear              | [50614, 1]                             | [50614, 66]    | 132      |
| ©À©¤(edge_emb)Linear              | [341148, 4]                            | [341148, 66]   | 330      |
| ©À©¤(convs)ModuleList             | --                                     | --             | 26,532   |
| ©¦    ©¸©¤(0)GINEConv              | [50614, 66], [2, 341148], [341148, 66] | [50614, 66]    | 13,266   |
| ©¦    ©¸©¤(1)GINEConv              | [50614, 66], [2, 341148], [341148, 66] | [50614, 66]    | 13,266   |
| ©À©¤(emlps)ModuleList             | --                                     | --             | --       |
| ©À©¤(batch_norms)ModuleList       | --                                     | --             | 264      |
| ©¦    ©¸©¤(0)BatchNorm             | [50614, 66]                            | [50614, 66]    | 132      |
| ©¦    ©¦    ©¸©¤(module)BatchNorm1d | [50614, 66]                            | [50614, 66]    | 132      |
| ©¦    ©¸©¤(1)BatchNorm             | [50614, 66]                            | [50614, 66]    | 132      |
| ©¦    ©¦    ©¸©¤(module)BatchNorm1d | [50614, 66]                            | [50614, 66]    | 132      |
| ©À©¤(mlp)Sequential               | [341148, 198]                          | [341148, 2]    | 11,277   |
| ©¦    ©¸©¤(0)Linear                | [341148, 198]                          | [341148, 50]   | 9,950    |
| ©¦    ©¸©¤(1)ReLU                  | [341148, 50]                           | [341148, 50]   | --       |
| ©¦    ©¸©¤(2)Dropout               | [341148, 50]                           | [341148, 50]   | --       |
| ©¦    ©¸©¤(3)Linear                | [341148, 50]                           | [341148, 25]   | 1,275    |
| ©¦    ©¸©¤(4)ReLU                  | [341148, 25]                           | [341148, 25]   | --       |
| ©¦    ©¸©¤(5)Dropout               | [341148, 25]                           | [341148, 25]   | --       |
| ©¦    ©¸©¤(6)Linear                | [341148, 25]                           | [341148, 2]    | 52       |
+---------------------------------+----------------------------------------+----------------+----------+
2025-03-05 16:17:48,308 [INFO ] Train F1: 0.0016
2025-03-05 16:18:51,963 [INFO ] Validation F1: 0.0000
2025-03-05 16:18:51,964 [INFO ] Test F1: 0.0000
2025-03-05 16:20:13,865 [INFO ] Train F1: 0.0000
2025-03-05 16:21:18,438 [INFO ] Validation F1: 0.0000
2025-03-05 16:21:18,439 [INFO ] Test F1: 0.0000
…
2025-03-05 22:05:21,942 [INFO ] +------------------------------------------+-----------------------------------------+----------------+----------+
| Layer                                    | Input Shape                             | Output Shape   | #Param   |
|------------------------------------------+-----------------------------------------+----------------+----------|
| GraphModule                              |                                         |                | 147,228  |
| ©À©¤(node_emb)ModuleDict                   | --                                      | --             | 198      |
| ©¦    ©¸©¤(node)Linear                      | [150952, 2]                             | [150952, 66]   | 198      |
| ©À©¤(edge_emb)ModuleDict                   | --                                      | --             | 924      |
| ©¦    ©¸©¤(node__to__node)Linear            | [700021, 6]                             | [700021, 66]   | 462      |
| ©¦    ©¸©¤(node__rev_to__node)Linear        | [890669, 6]                             | [890669, 66]   | 462      |
| ©À©¤(convs)ModuleList                      | --                                      | --             | 53,064   |
| ©¦    ©¸©¤(0)ModuleDict                     | --                                      | --             | 26,532   |
| ©¦    ©¦    ©¸©¤(node__to__node)GINEConv     | [150952, 66], [2, 700021], [700021, 66] | [150952, 66]   | 13,266   |
| ©¦    ©¦    ©¸©¤(node__rev_to__node)GINEConv | [150952, 66], [2, 890669], [890669, 66] | [150952, 66]   | 13,266   |
| ©¦    ©¸©¤(1)ModuleDict                     | --                                      | --             | 26,532   |
| ©¦    ©¦    ©¸©¤(node__to__node)GINEConv     | [150952, 66], [2, 700021], [700021, 66] | [150952, 66]   | 13,266   |
| ©¦    ©¦    ©¸©¤(node__rev_to__node)GINEConv | [150952, 66], [2, 890669], [890669, 66] | [150952, 66]   | 13,266   |
| ©À©¤(batch_norms)ModuleList                | --                                      | --             | 264      |
| ©¦    ©¸©¤(0)ModuleDict                     | --                                      | --             | 132      |
| ©¦    ©¦    ©¸©¤(node)BatchNorm              | [150952, 66]                            | [150952, 66]   | 132      |
| ©¦    ©¸©¤(1)ModuleDict                     | --                                      | --             | 132      |
| ©¦    ©¦    ©¸©¤(node)BatchNorm              | [150952, 66]                            | [150952, 66]   | 132      |
| ©À©¤(emlps)ModuleList                      | --                                      | --             | 70,224   |
| ©¦    ©¸©¤(0)ModuleList                     | --                                      | --             | 35,112   |
| ©¦    ©¦    ©¸©¤(0)ModuleDict                | --                                      | --             | 26,268   |
| ©¦    ©¦    ©¸©¤(1)ModuleDict                | --                                      | --             | --       |
…
| ©¦    ©¦    ©¸©¤(0)ModuleDict                | --                                      | --             | 26,268   |
| ©¦    ©¦    ©¸©¤(1)ModuleDict                | --                                      | --             | --       |
| ©¦    ©¦    ©¸©¤(2)ModuleDict                | --                                      | --             | 8,844    |
| ©À©¤(mlp)ModuleList                        | --                                      | --             | 22,554   |
| ©¦    ©¸©¤(0)ModuleDict                     | --                                      | --             | 19,900   |
| ©¦    ©¦    ©¸©¤(node__to__node)Linear       | [700021, 198]                           | [700021, 50]   | 9,950    |
| ©¦    ©¦    ©¸©¤(node__rev_to__node)Linear   | [890669, 198]                           | [890669, 50]   | 9,950    |
| ©¦    ©¸©¤(1)ModuleDict                     | --                                      | --             | --       |
| ©¦    ©¦    ©¸©¤(node__to__node)ReLU         | [700021, 50]                            | [700021, 50]   | --       |
| ©¦    ©¦    ©¸©¤(node__rev_to__node)ReLU     | [890669, 50]                            | [890669, 50]   | --       |
| ©¦    ©¸©¤(2)ModuleDict                     | --                                      | --             | --       |
| ©¦    ©¦    ©¸©¤(node__to__node)Dropout      | [700021, 50]                            | [700021, 50]   | --       |
| ©¦    ©¦    ©¸©¤(node__rev_to__node)Dropout  | [890669, 50]                            | [890669, 50]   | --       |
| ©¦    ©¸©¤(3)ModuleDict                     | --                                      | --             | 2,550    |
| ©¦    ©¦    ©¸©¤(node__to__node)Linear       | [700021, 50]                            | [700021, 25]   | 1,275    |
| ©¦    ©¦    ©¸©¤(node__rev_to__node)Linear   | [890669, 50]                            | [890669, 25]   | 1,275    |
| ©¦    ©¸©¤(4)ModuleDict                     | --                                      | --             | --       |
| ©¦    ©¦    ©¸©¤(node__to__node)ReLU         | [700021, 25]                            | [700021, 25]   | --       |
| ©¦    ©¦    ©¸©¤(node__rev_to__node)ReLU     | [890669, 25]                            | [890669, 25]   | --       |
| ©¦    ©¸©¤(5)ModuleDict                     | --                                      | --             | --       |
| ©¦    ©¦    ©¸©¤(node__to__node)Dropout      | [700021, 25]                            | [700021, 25]   | --       |
| ©¦    ©¦    ©¸©¤(node__rev_to__node)Dropout  | [890669, 25]                            | [890669, 25]   | --       |
| ©¦    ©¸©¤(6)ModuleDict                     | --                                      | --             | 104      |
| ©¦    ©¦    ©¸©¤(node__to__node)Linear       | [700021, 25]                            | [700021, 2]    | 52       |
| ©¦    ©¦    ©¸©¤(node__rev_to__node)Linear   | [890669, 25]                            | [890669, 2]    | 52       |
+------------------------------------------+-----------------------------------------+----------------+----------+
2025-03-05 23:12:52,580 [INFO ] Train F1: 0.0014
2025-03-05 23:51:46,126 [INFO ] Validation F1: 0.0228
2025-03-05 23:51:46,127 [INFO ] Test F1: 0.0467
2025-03-06 00:45:03,689 [INFO ] Train F1: 0.1793
2025-03-06 01:21:19,601 [INFO ] Validation F1: 0.3044
2025-03-06 01:21:19,602 [INFO ] Test F1: 0.4768
…
